…
t compiled to use: AVX2 FMA
Load dataset
sentenceTrain:  (460, 55)
positionTrain1:  (460, 55)
yTrain:  (460,)
sentenceTest:  (98, 55)
positionTest1:  (98, 55)
yTest:  (98,)
Embeddings:  (1619, 300)
(?, 55, 128)
(?, 55, 1)
(?, 55, 1)
(?, 1, 128)
(?, 1, 128)
(?, ?)
(?, 2)
__________________________________________________________________________________________________
Layer (type)                    Output Shape         Param #     Connected to                     
==================================================================================================
words_input (InputLayer)        (None, 55)           0                                            
__________________________________________________________________________________________________
distance1_input (InputLayer)    (None, 55)           0                                            
__________________________________________________________________________________________________
distance2_input (InputLayer)    (None, 55)           0                                            
__________________________________________________________________________________________________
embedding_1 (Embedding)         (None, 55, 300)      485700      words_input[0][0]                
__________________________________________________________________________________________________
embedding_2 (Embedding)         (None, 55, 100)      6400        distance1_input[0][0]            
__________________________________________________________________________________________________
embedding_3 (Embedding)         (None, 55, 100)      6400        distance2_input[0][0]            
__________________________________________________________________________________________________
concatenate_1 (Concatenate)     (None, 55, 500)      0           embedding_1[0][0]                
                                                                 embedding_2[0][0]                
                                                                 embedding_3[0][0]                
__________________________________________________________________________________________________
conv1d_1 (Conv1D)               (None, 55, 128)      128128      concatenate_1[0][0]              
__________________________________________________________________________________________________
dense_1 (Dense)                 (None, 55, 1)        129         conv1d_1[0][0]                   
__________________________________________________________________________________________________
activation_1 (Activation)       (None, 55, 1)        0           dense_1[0][0]                    
__________________________________________________________________________________________________
dot_1 (Dot)                     (None, 1, 128)       0           activation_1[0][0]               
                                                                 conv1d_1[0][0]                   
__________________________________________________________________________________________________
dropout_1 (Dropout)             (None, 1, 128)       0           dot_1[0][0]                      
__________________________________________________________________________________________________
reshape_1 (Reshape)             (None, 128)          0           dropout_1[0][0]                  
__________________________________________________________________________________________________
dense_2 (Dense)                 (None, 256)          33024       reshape_1[0][0]                  
__________________________________________________________________________________________________
dense_3 (Dense)                 (None, 100)          25700       dense_2[0][0]                    
__________________________________________________________________________________________________
dense_4 (Dense)                 (None, 2)            202         dense_3[0][0]                    
==================================================================================================
Total params: 685,683
Trainable params: 685,683
Non-trainable params: 0
__________________________________________________________________________________________________
Start training

Epoch	1

Epoch 1/1

 32/460 [=>............................] - ETA: 10s - loss: 1.1194 - acc: 0.5000
…
